data.pth (torch, 3391 bytes, 6 tensors)

l1.weight f4 [8, 17]
0	0x3f2c4916	0.6729902
1	0x3f6cf302	0.925583
2	0xbead2de0	-0.33824062
3	0xbead52e5	-0.33852306
4	0xbea66640	-0.32499886
5	0x3f3b8e7f	0.73264307
6	0xbead2bf3	-0.33822593
7	0x3f42909e	0.7600192
8	0x3ed8573c	0.42254055
9	0xbe49d925	-0.1971174
10	0x3f154c42	0.58319485
11	0x3f31d013	0.6945812
12	0xbe7423ed	-0.2384183
13	0xbead2ab8	-0.33821654
14	0x3ec7966a	0.38981944
15	0xbe5aa60d	-0.21352406
16	0xbea369e9	-0.3191674
17	0x3ed29e7b	0.41136536
18	0x3f2a0968	0.664206
19	0xbebdebff	-0.37094113
20	0xbe19611b	-0.14978449
21	0xbe8621d9	-0.261977
22	0x3f41d118	0.75709677
23	0xbe6599cf	-0.22421955
24	0x3eeba7d7	0.4602649
25	0x3ec62db1	0.38706735
26	0xbcab5107	-0.02091266
27	0x3f2ecee0	0.68284416
28	0x3f3bc5f4	0.7334893
29	0xbe9a8683	-0.3018075
30	0xbe95a4a1	-0.29227164
31	0xbf0b44f0	-0.54402065
32	0xbbcf84d2	-0.006332972
33	0xbe9aa319	-0.3020256
34	0x3d11df83	0.035613548
35	0xbe5bb236	-0.21454701
36	0xbe2a21f9	-0.16614522
37	0xbe83151c	-0.25602043
38	0xbefc0e5f	-0.49229714
39	0x3e07c785	0.13259704
40	0xbe604308	-0.2190057
41	0x3f0e6881	0.5562821
42	0x3f4df9d9	0.8045936
43	0x3eca8ed0	0.39562082
44	0x3e848574	0.25883067
45	0x3ee540f5	0.4477612
46	0xbefac734	-0.48980105
47	0xbe2d9f5f	-0.16955326
48	0x3f25c9e5	0.6476119
49	0x3ec31708	0.3810351
50	0xbefafa98	-0.49019313
51	0xbeef8151	-0.46778348
52	0xbde525b2	-0.111888304
53	0xbf003b81	-0.50090796
54	0xbf088108	-0.53321886
55	0x3f2e2f5d	0.6804102
56	0xbe90f3f9	-0.28311136
57	0xbf0463b7	-0.5171465
58	0x3ec4ef46	0.384638
59	0x3eb804c7	0.35941145
60	0xbf259ba8	-0.6469064
61	0xbd698598	-0.05701217
62	0x3f1530c8	0.5827756
63	0x3f24ac5a	0.6432549
64	0xbf05cb46	-0.52263296
65	0xbf20aba2	-0.6276189
66	0xbf25b28b	-0.6472556
67	0x3f4e0627	0.8047814
68	0x3f63c2ce	0.88969123
69	0x3f111ef4	0.56687856
70	0xbe0a40cc	-0.1350128
71	0xbe768d36	-0.24077305
72	0x3ed524fe	0.41629785
73	0x3f7e6f20	0.99388313
74	0xbe324815	-0.1741031
75	0x3a9efe29	0.0012130189
76	0x3e91ed96	0.28501576
77	0xbea8717b	-0.3289908
78	0x3f446475	0.76715785
79	0x3f200318	0.6250472
80	0x3ea6b726	0.32561606
81	0xbe40428d	-0.18775387
82	0xbe8f44a3	-0.27982053
83	0xbea864ed	-0.328895
84	0x3f00e228	0.5034509
85	0x3e5cd9d9	0.21567477
86	0x3ec6d63f	0.38835332
87	0xbed8e411	-0.423615
88	0xbedbb64c	-0.4291252
89	0xbeb9316d	-0.3617052
90	0x3f000c45	0.5001872
91	0xbed97c0d	-0.42477456
92	0xbed8e721	-0.42363837
93	0xbed9423e	-0.4243335
94	0x3ef49631	0.47770837
95	0x3e9cc0af	0.30615756
96	0xbed8e8f2	-0.42365223
97	0xbed5ef89	-0.41784313
98	0xbed8e64c	-0.42363203
99	0x3f5e3881	0.8680497
100	0x3ef76a76	0.4832341
101	0xbe9070a1	-0.2821093
102	0xbf3625f9	-0.7115169
103	0xbf25f5f1	-0.648284
104	0x3f44dfa8	0.7690377
105	0x3f48208b	0.78174657
106	0x3bd50269	0.0065005315
107	0xbf288fd1	-0.65844446
108	0x3f5d9a65	0.8656371
109	0x3e84c355	0.25930277
110	0x3e935a2b	0.2877973
111	0xbe9b982b	-0.30389532
112	0xbf517d26	-0.81831586
113	0x3f5c141a	0.8596817
114	0xbd00b04b	-0.031418126
115	0x3f560f33	0.8361694
116	0x3db5d78d	0.08879004
117	0xbe970b17	-0.29500648
118	0x3e26658a	0.16249672
119	0x3ebc11bb	0.36732277
120	0x3ee84de0	0.45371914
121	0x3eebc30b	0.46047243
122	0x3ebb9edd	0.3664464
123	0xbed958ab	-0.4245046
124	0x3f08fdab	0.53512067
125	0x3eea6f4c	0.45788038
126	0xbf191537	-0.59797996
127	0xbf19292f	-0.59828466
128	0x3f63e1ab	0.89016217
129	0x3f115bd4	0.56780744
130	0xbed04f74	-0.40685618
131	0xbeb5fd7e	-0.35544962
132	0x3ef5d9a5	0.48017612
133	0x3e88459e	0.26615614
134	0x3f6a34ef	0.9148702
135	0xbebdcf67	-0.37072298

l1.bias f4 [8]
0	0x3ead332a	0.33828098
1	0x3f12bcbd	0.5731924
2	0x3efad45a	0.48990136
3	0x3f25b70a	0.6473242
4	0x3ea87fd1	0.32910016
5	0x3ed8dab1	0.42354348
6	0x3f582e32	0.8444549
7	0x3f1927f3	0.5982658

l2.weight f4 [8, 8]
0	0xbe6c6727	-0.23086224
1	0xbe9def22	-0.30846506
2	0xbe7f3af4	-0.24924833
3	0x3cf6dbd4	0.03013412
4	0x3c803a30	0.015652746
5	0x3e99e01c	0.30053794
6	0x3c1e3300	0.009655714
7	0xbe924d22	-0.28574473
8	0x3ea42112	0.3205648
9	0x3efcd175	0.49378553
10	0x3e9f8127	0.31153223
11	0xbf01ada1	-0.5065556
12	0x3ed08a00	0.40730286
13	0xbf2c3c83	-0.67279834
14	0x3f25b7fd	0.6473387
15	0xbce1723a	-0.027520288
16	0x3f2c6b2b	0.67351025
17	0xbd13fd5d	-0.036130298
18	0x3f8be4f1	1.0929242
19	0x3c56cdd0	0.013110593
20	0xbed5321e	-0.416398
21	0x3e2f871f	0.17141388
22	0x3ee94c29	0.45565918
23	0xbf7b462a	-0.98153937
24	0x3ea294fc	0.3175429
25	0x3f0b069f	0.5430698
26	0x3acc36f7	0.0015580346
27	0x3fbbc6fc	1.46701
28	0x3fc173ca	1.5113461
29	0xbef73862	-0.48285204
30	0x3f74f280	0.95682526
31	0xbea21c30	-0.3166213
32	0x3f9bbd89	1.2167217
33	0x3f55fd6e	0.8358983
34	0x3f208d84	0.62715936
35	0xbe8e3f55	-0.27782694
36	0x3f2297bd	0.63512784
37	0x3f9ac7d5	1.2092234
38	0xbf33e763	-0.70274943
39	0x3f235887	0.63806957
40	0xbf1e1662	-0.61752903
41	0x3ee385a9	0.44437912
42	0x3f5cd2ca	0.8625914
43	0xbf3b60c6	-0.7319454
44	0xbf93e70e	-1.1554887
45	0x3d77f3bd	0.06053518
46	0x3fa3ac74	1.2787004
47	0x3f2406fb	0.6407315
48	0xbe5a224d	-0.21302147
49	0xbe21ccdd	-0.15800805
50	0x3ec4fcf2	0.38474232
51	0xbf859874	-1.043715
52	0xbf031786	-0.5120777
53	0x3f271242	0.65262234
54	0x3f296ca8	0.6618142
55	0x3fb0739b	1.378528
56	0x3f8fc058	1.1230574
57	0x3f73ef16	0.9528669
58	0x3f3ef70a	0.745957
59	0xbecd8559	-0.401408
60	0x3f6b321f	0.91873354
61	0x3f8064ab	1.0030721
62	0xbf32106a	-0.69556296
63	0x3f116b75	0.5680459

l2.bias f4 [8]
0	0xbd05364e	-0.032522492
1	0xbe96d73a	-0.2946108
2	0x3d7eb72c	0.062186405
3	0x3d2f7b22	0.042842038
4	0x3b7cad90	0.00385556
5	0x3ee45bd8	0.4460132
6	0x3f0b780f	0.5448007
7	0xbd066b12	-0.032816954

l3.weight f4 [5, 8]
0	0x3e5d5058	0.2161268
1	0x3e7373e7	0.23774682
2	0xbf91848a	-1.1368573
3	0xbf1bdd65	-0.60884696
4	0x3f186a39	0.5953708
5	0xbf9d63b8	-1.2296057
6	0xbe8bebea	-0.27328426
7	0x3ef8a31d	0.48561946
8	0xbeaf31a9	-0.34217575
9	0xbf9a115c	-1.2036548
10	0x3f170739	0.58995396
11	0xc004e8fb	-2.07672
12	0x3ebc5f72	0.3679157
13	0x3dcb6611	0.09931577
14	0x3f23657a	0.63826716
15	0x3d149daf	0.03628319
16	0xbd8800e7	-0.06640797
17	0x3f23bd90	0.63961124
18	0x3f8043df	1.0020713
19	0x3dfe4524	0.12415531
20	0xbeb1185c	-0.34588897
21	0xbe8331f1	-0.2562404
22	0xbf9d7918	-1.230258
23	0xbd5e2a04	-0.054239288
24	0xbd862354	-0.06549707
25	0xbfab133d	-1.3365246
26	0xbf9a7dd1	-1.2069646
27	0x3f879880	1.0593414
28	0xbf90477e	-1.1271818
29	0xbf8296ef	-1.0202311
30	0xbf2b1469	-0.6682802
31	0xbf996b6b	-1.1985906
32	0xbe0232ee	-0.1271474
33	0x3f90e353	1.1319374
34	0xbeddffe2	-0.43359286
35	0xbf30d6fb	-0.69078034
36	0xbfa77e50	-1.3085423
37	0x3f1327b5	0.57482463
38	0x3f3bd22d	0.7336758
39	0xbfa76ee8	-1.3080721

l3.bias f4 [5]
0	0xbe8ecfc1	-0.2789288
1	0xbea82705	-0.3284227
2	0xbf337ec4	-0.70115304
3	0x3edbffef	0.429687
4	0xbe05f367	-0.13081132
