models/model.pth (torch, 3399 bytes, 6 tensors)

l1.weight f4 [8, 17]
0.27178183 0.7106519 -0.5680899 -0.5519501 -0.37712562 0.5355432 -0.4715718 0.27414298
0.3616775 0.94436634 0.4459825 0.58848596 -0.31402618 -0.6228678 0.8723157 0.4818598
-0.33716416 -0.3026265 -0.1271169 -0.30204976 -0.29972196 -0.21364614 -0.30868202 -0.3020249
-0.30209088 -0.14964615 0.3090586 -0.29803023 -0.30275822 -0.20754641 -0.22886917 0.8559642
0.6449028 0.1495634 -0.46702394 -0.28103146 0.53691643 0.6213859 0.73731935 -0.5432437
0.46621364 0.66156244 0.66163397 -0.65087134 -0.17786665 0.5876076 0.7683684 0.17784092
-0.59632164 -0.65543365 0.83605844 -0.33231938 -0.55413604 0.7858849 0.6354895 0.4272637
-0.6430714 0.6900339 -0.7070406 -0.7066923 0.55299324 -0.45982593 -0.70675373 0.60215855
0.78631186 0.275186 0.13659842 0.7950081 0.009247988 0.05813542 0.14245555 -0.19846344
0.08097264 0.021627605 0.1066373 0.009990841 0.075780004 0.12107125 0.16365975 0.13604394
-0.058179528 -0.060484856 0.1500831 0.23228681 -0.14807999 0.81275296 0.5415892 0.93650144
1.0573308 -0.65611976 0.6157622 0.9643121 -0.08042839 -0.026836328 -0.50254273 0.6970157
-0.090110414 -0.55255604 0.88067436 -0.44435507 -0.50732833 -0.3562258 0.7553371 0.7933536
0.67058116 0.41642115 -0.070983246 0.74589056 0.5750047 -0.43244198 -0.40692264 -0.4297812
0.73386216 -0.53480846 -0.25750563 0.41475978 -0.29240513 -0.4049705 -0.17973451 0.158288
-0.49114102 -0.54013735 -0.59731036 -0.07644551 -0.2948508 -0.54276115 0.9657615 0.94950134
0.19516407 -0.10760819 0.4860862 -0.06605665 -0.5978324 -0.09051032 0.003955928 0.08336401
00000000: fd26 8b3e 48ed 353f 576e 11bf 9a4c 0dbf
00000010: 9c16 c1be 5c19 093f dc71 f1be 785c 8c3e
00000020: cb2d b93e fec1 713f d157 e43e 04a7 163f
00000030: 0ac8 a0be 4474 1fbf 1550 5f3f 54b6 f63e
00000040: c8a0 acbe dcf1 9abe ef2a 02be 44a6 9abe
00000050: 2875 99be 0ec6 5abe 920b 9ebe 02a3 9abe
00000060: a8ab 9abe d73c 19be ee3c 9e3e 6b97 98be
00000070: 2003 9bbe 0c87 54be ae5c 6abe 7820 5b3f
00000080: 5a18 253f 2627 193e c31d efbe 5be3 8fbe
00000090: 5b73 093f 2513 1f3f f6c0 3c3f 0512 0bbf
000000a0: 8eb3 ee3e 285c 293f d860 293f 819f 26bf
000000b0: ad22 36be 746d 163f cbb3 443f ee1b 363e
000000c0: 89a8 18bf 80ca 27bf ed07 563f c425 aabe
000000d0: dcdb 0dbf c12f 493f 71af 223f 4fc2 da3e
000000e0: 54a0 24bf 10a6 303f 9d00 35bf c9e9 34bf
000000f0: f790 0d3f 4e6e ebbe d0ed 34bf 1027 1a3f
00000100: bc4b 493f 2ee5 8c3e 75e0 0b3e a785 4b3f
00000110: e084 173c 681f 6e3d dedf 113e 003a 4bbe
00000120: fcd4 a53d 602c b13c a864 da3d a0b0 233c
00000130: 8c32 9b3d 34f4 f73d 6c96 273e 1a4f 0b3e
00000140: a84d 6ebd f8be 77bd 62af 193e 98dc 6d3e
00000150: 48a2 17be 9410 503f 97a5 0a3f 8fbe 6f3f
00000160: 9e56 873f 77f7 27bf 97a2 1d3f 28dd 763f
00000170: a4b7 a4bd dcd7 dbbc a4a6 00bf 9f6f 323f
00000180: cf8b b8bd 5074 0dbf e073 613f 8282 e3be
00000190: 45e0 01bf 3a63 b6be c65d 413f 3919 4b3f
000001a0: 35ab 2b3f 2735 d53e aa5f 91bd aff2 3e3f
000001b0: 8233 133f 0969 ddbe 2a58 d0be 480c dcbe
000001c0: 64de 3b3f 35e9 08bf c7d7 83be 655b d43e
000001d0: 20b6 95be 4b58 cfbe 530c 38be 4016 223e
000001e0: d676 fbbe 7146 0abf 55e9 18bf 778f 9cbd
000001f0: aff6 96be 65f2 0abf 253c 773f 8512 733f
00000200: 17d9 473e af61 dcbd 4ae0 f83e b548 87bd
00000210: 8b0b 19bf 7a5d b9bd bba0 813b c0ba aa3d

l1.bias f4 [8]
0.62262815 0.30209637 0.6562958 0.7067045 -0.2333472 0.65614665 0.5444514 0.5979231
00000000: 8f64 1f3f 60ac 9a3e 0003 283f 96ea 343f
00000010: 92f2 6ebe 3af9 273f 2b61 0b3f 7d11 193f

l2.weight f4 [8, 8]
0.38137645 -0.024213176 0.82057595 -0.24062568 0.11398983 -0.82437336 -0.17271562 1.1991446
0.45427555 -0.26628926 0.6430196 -1.1725224 0.042549193 1.2605864 0.124745235 0.95502895
1.0783119 0.44283533 -0.78694856 0.08201373 0.2603341 0.89001554 0.8319819 0.11298033
0.12723324 -0.033796787 -0.18515506 0.1455183 -0.15739024 -0.10856138 0.1678063 -0.11437458
-1.1451706 -0.2765368 0.9542006 1.0983099 0.23942193 0.38539493 0.5243281 -0.7096739
0.13399383 -0.6643177 1.3041743 0.06732704 -0.18860567 0.62137175 1.1651607 -0.42508867
-1.0947084 -0.26102394 1.1154654 1.1680983 0.21236959 0.7754447 0.0033218982 -0.7462449
1.3251185 0.9235388 0.5688804 0.6751833 -0.28035825 -1.0045419 -0.9552439 1.352066
00000000: c643 c33e b65a c6bc 4411 523f 9466 76be
00000010: 8073 e93d 220a 53bf 5ddc 30be 927d 993f
00000020: ce96 e83e 1157 88be ef9c 243f 3715 96bf
00000030: 1048 2e3d e55a a13f 6e7a ff3d c77c 743f
00000040: 2006 8a3f 50bb e23e 7675 49bf d1f6 a73d
00000050: 834a 853e 0fd8 633f c4fc 543f 3b62 e73d
00000060: 6e49 023e 806e 0abd 4a99 3dbe c002 153e
00000070: e82a 21be 6e55 debd 6ad5 2b3e 383d eabd
00000080: f394 92bf 3b96 8dbe 7e46 743f 6b95 8c3f
00000090: 062b 753e 7c52 c53e 5e3a 063f 30ad 35bf
000000a0: ae35 093e ba10 2abf 2fef a63f c2e2 893d
000000b0: d821 41be 3812 1f3f fc23 953f 39a5 d9be
000000c0: 681f 8cbf eea4 85be 92c7 8e3f 3f84 953f
000000d0: 6a77 593e 8b83 463f 34b4 593b e809 3fbf
000000e0: 7c9d a93f 0a6d 6c3f 25a2 113f d0d8 2c3f
000000f0: 1e8b 8fbe d494 80bf dd8a 74bf 8010 ad3f

l2.bias f4 [8]
0.81473994 -0.04111807 0.24794716 -0.30104923 0.29723728 0.21345878 0.3086972 0.9076988
00000000: cc92 503f 6c6b 28bd dce5 7d3e 2023 9abe
00000010: 7c2f 983e f094 5a3e 8f0d 9e3e f35e 683f

l3.weight f4 [5, 8]
-0.47640178 0.2909609 1.050944 -0.040884793 -0.6024678 0.49194732 -0.7150843 -0.779489
0.25278535 -1.0181881 0.39410403 -0.023580402 -0.81601876 -1.4458903 -0.7415452 0.8311438
0.48248562 0.8888684 -0.72374433 -0.19557904 -0.8034803 -0.5234359 -0.9471616 0.45462218
0.39225394 -1.5355572 -1.700355 0.24359831 0.44756246 0.29682657 0.25333914 0.2889902
-1.098278 -0.48310983 -0.11429103 0.022219568 0.8180069 0.14947933 0.583115 -1.1066543
00000000: efea f3be d4f8 943e 5585 863f d076 27bd
00000010: 543b 1abf 85e0 fb3e c40f 37bf 978c 47bf
00000020: 156d 813e fd53 82bf 01c8 c93e b02b c1bc
00000030: 9be6 50bf ef12 b9bf e8d5 3dbf d7c5 543f
00000040: 5b08 f73e e18c 633f 4f47 39bf df45 48be
00000050: e3b0 4dbf e5ff 05bf 2f79 72bf 3dc4 e83e
00000060: 82d5 c83e 238d c4bf 3ca5 d9bf d671 793e
00000070: e826 e53e a7f9 973e abb5 813e 86f6 933e
00000080: 6094 8cbf 2c5a f7be 6a11 eabd d005 b63c
00000090: e668 513f 1c11 193e 0647 153f d9a6 8dbf

l3.bias f4 [5]
-0.05104505 0.29497522 -0.31184316 -0.260938 -0.16273597
00000000: 9d14 51bd fe06 973e e8a9 9fbe aa99 85be
00000010: 42a4 26be
